QNet_weights_best.pth (torch, 22586 bytes, 6 tensors)

fc1.weight f4 [64, 8]
000000 2d a3 84 3e 07 91 15 3d d5 b4 05 3f 29 dc e5 bf
       0.25905743 0.036515262 0.5222905 -1.7957813
000010 d3 45 b2 3f cb a4 9c 3e 13 dc 41 bb d8 ed 22 bf
       1.3927559 0.30594477 -0.0029580637 -0.6364417
000020 f8 5f c6 be 95 99 24 bf 54 aa 49 3f 59 d4 a8 bf
       -0.38745093 -0.6429685 0.78775525 -1.3189803
000030 a2 d2 a0 3b 1e 6c b9 3d 40 be 11 bf fe 9e b4 bd
       0.004907922 0.09053825 -0.56930923 -0.08819388
000040 44 9b a2 3f f9 6b 0d bf 28 bb 96 3f 8c 72 c0 be
       1.2703633 -0.5524288 1.1775866 -0.37587392
000050 09 23 7b bf ac 29 ac bd de 53 0f 3f 1c 94 cd 3d
       -0.98100334 -0.08406386 0.55987346 0.10038015
000060 ec 18 6d 3e fd e5 9a 3d 2a 12 b8 3e 13 6e 7d be
       0.23154038 0.07563398 0.35951358 -0.24749021
000070 6e 60 36 40 d1 bc 6a 3f 8c 18 30 3f 0b 18 c3 3e
       2.8496356 0.9169436 0.68787456 0.3810428
000080 63 ff d6 be 57 13 89 bf 94 b1 a7 3e 93 ab 25 bf
       -0.4199172 -1.0709027 0.3275267 -0.64714926
000090 3e 15 84 bf bd d4 42 bf 3f 73 41 3f fd 82 de bf
       -1.0318983 -0.7610586 0.75566477 -1.7383724
0000a0 b3 ae de 3d 7e 94 fd 39 73 52 d3 be 5a ce 56 be
       0.10873165 0.00048366556 -0.4127384 -0.20977154
0000b0 a0 cc 24 bf d7 42 2b bf b3 8a 32 bf d6 f4 b9 3f
       -0.6437473 -0.66898865 -0.6974289 1.4527843
0000c0 91 4b 5e bf 00 52 d5 bf d8 c2 04 3f cc 02 b6 be
       -0.86834055 -1.666565 0.5185981 -0.3554901
0000d0 22 b8 cc 3e 31 50 da 3b 45 b8 47 3f 8c e7 ba bd
       0.39984232 0.0066623916 0.7801555 -0.09126195
0000e0 00 75 0c bf d3 5a 18 bf 7a 80 44 be f8 f6 c7 be
       -0.5486603 -0.59513587 -0.19189635 -0.3905561
0000f0 60 f0 a7 be 4c 0c 10 3f 8c 03 08 be 7b b0 37 3f
       -0.3280058 0.56268764 -0.13282603 0.7175366
000100 fb a3 a3 3e ab 6f 22 3f 83 88 10 be 2a 6e 28 bf
       0.31961045 0.6345164 -0.14114575 -0.65793097
000110 1f f2 cd bf 23 ae 46 3f 19 c0 e4 bf a9 b8 9a bf
       -1.6089514 0.7760946 -1.7871124 -1.2087604
000120 51 5f 1f be 3e ff bd 3e ab 85 63 bf 82 10 e5 3d
       -0.15563704 0.37108797 -0.88875836 0.11184789
000130 22 fe af 3f eb 89 27 40 ec 36 58 bd fa c4 8c be
       1.374943 2.6177928 -0.052786753 -0.2749403
000140 98 df 03 3b de 16 08 3f 72 87 98 3c 89 02 8a bf
       0.0020122286 0.5315989 0.018619273 -1.0782024
000150 5d ef 28 bf 29 06 1c bf 7e 78 99 3e 83 97 8d be
       -0.6599024 -0.609469 0.2997474 -0.27654657
000160 81 e2 69 be 0d 97 39 3e b6 d2 8b 3e 1c 5b 68 bf
       -0.2284031 0.18124028 0.27309197 -0.9076402
000170 cb d7 d2 3f ac f7 66 bf 43 d7 68 bf 21 4d 13 3d
       1.6472105 -0.9022167 -0.90953463 0.035962228
000180 28 8f 4b be 65 2b da 3e e2 2c 08 3f 89 a4 85 bf
       -0.19878829 0.42611232 0.53193486 -1.0440837
000190 aa 6f 60 3f 11 f2 1c be 5f 0a 07 bf d0 94 71 bf
       0.87670386 -0.15326716 -0.527502 -0.94367695
0001a0 36 1b 80 3e be 81 a9 bb ff 8d 16 bf a3 f7 9f bf
       0.2502076 -0.005172937 -0.5881042 -1.2497448
0001b0 8c 62 fe be 3d d4 24 3f cf 94 6a be 23 5b 23 be
       -0.4968456 0.6438635 -0.22908328 -0.15952735
0001c0 e0 24 fc be 20 94 81 be b9 8c 62 3f de a6 68 bf
       -0.49246883 -0.25308323 0.88495976 -0.9087962
0001d0 8c c4 90 3e 18 ad 51 3f 06 48 34 3f 99 f1 0a 3e
       0.28274953 0.81904745 0.704224 0.13568725
0001e0 0c 65 48 3d ac 85 97 bc e8 34 c6 bf 00 c9 1e 40
       0.04892449 -0.018496357 -1.5484896 2.481018
0001f0 94 15 97 bd d3 51 37 bc 1c 7a b7 bf 7c d7 47 3f
       -0.073771626 -0.011188942 -1.433414 0.7806318
000200 e0 44 79 3e 95 ca a4 be bd 1c 95 bf 18 fe 5e 3f
       0.2434268 -0.32185808 -1.1649395 0.87106466
000210 db 82 f8 3d 8c a6 a1 be 3c 78 31 3f 33 ed 15 3f
       0.12134334 -0.31572378 0.6932409 0.5856506
000220 36 ae 15 3d 7c a1 1f bf 6d 71 e9 3c 54 78 ae 3e
       0.036543094 -0.6235578 0.028496468 0.34076178
000230 ca 14 fa 3f 32 61 fb bc de 1a a3 be a6 02 14 3e
       1.9537594 -0.030685995 -0.31856436 0.14454135
000240 9a 4c a7 bf 9d 06 59 3d 80 58 a7 bf f0 d6 a2 be
       -1.3070252 0.052984823 -1.3073883 -0.3180461
000250 1a 64 91 3e f9 dd d9 be f1 e7 85 bf 6d d1 ce bd
       0.28396684 -0.42552164 -1.0461408 -0.100985385
000260 c9 ca 80 3f eb 86 87 bf f4 65 cb bf 90 2d aa be
       1.0061885 -1.0588049 -1.5890489 -0.33237886
000270 08 09 86 3e cd 71 ae bf 33 d8 bb 3e e0 d8 de be
       0.26178765 -1.3628479 0.36688384 -0.43524837
000280 fc ef a4 3e 06 82 25 bf 47 66 33 3f 07 61 92 bf
       0.32214344 -0.64651525 0.7007794 -1.143586
000290 f4 d4 b4 bf 5c 4a 98 bf d2 d5 c8 3d 39 86 07 be
       -1.4127488 -1.1897693 0.09806408 -0.13234796
0002a0 27 4c be 3d af 8d 1e bf 2c 6d 1d be ed cc eb be
       0.09291869 -0.6193494 -0.15373677 -0.46054783
0002b0 bf 67 8c 3f 95 18 29 bf 2c 0f 22 3f 7f 83 e3 3e
       1.0969161 -0.66053134 0.633044 0.4443626
0002c0 b3 f1 2b bc d0 f9 b5 3e 49 a3 40 be 64 56 b8 3f
       -0.010494637 0.35542154 -0.18812288 1.4401364
0002d0 d1 e7 a1 be 9b 97 23 bf c9 7f 8b 3d e5 08 93 bf
       -0.31622174 -0.63903207 0.068114825 -1.1487089
0002e0 78 91 b1 3d 64 96 00 3c 14 b1 b4 bf 42 07 23 3f
       0.08670324 0.007848356 -1.411654 0.6368295
0002f0 d8 d3 31 3d 1a 40 30 3d 9d 0d 44 3f 81 10 ea 3e
       0.04341492 0.043029882 0.7658327 0.45715716
000300 b7 b8 63 3f 4e 6b 85 3e ee 26 71 3f e0 a1 7f 3e
       0.8895373 0.2605843 0.94200027 0.24964094
000310 5d 92 1e c0 5c 71 14 bf 35 b3 84 bf d8 39 16 3f
       -2.4776833 -0.5798547 -1.036719 0.5868201
000320 16 a8 7c bf 87 ed 0a bf 67 c6 8e bf 69 b4 32 bf
       -0.9869398 -0.5426869 -1.1154298 -0.69806534
000330 f8 fc d4 3f fe 48 83 3e ac 42 4f 3f 64 23 cc 3e
       1.66397 0.25641626 0.8096111 0.3987075
000340 a4 cc 8f 3c 1e 1a d4 bc 72 68 bf bf da 43 e7 3e
       0.017553635 -0.02589136 -1.4953749 0.45168954
000350 a9 49 9c 3f d0 c2 b9 3d b3 55 7e 3f 2f d2 2c bd
       1.2209979 0.09070361 0.99349517 -0.042192634
000360 63 5a 9e 3e 0f 82 30 3e 29 06 1d 3f 1c f1 81 be
       0.30928335 0.17237113 0.61337525 -0.25379264
000370 39 0a 33 40 6a 84 c5 3f a0 31 75 3f 09 c6 f9 3e
       2.797499 1.5431035 0.95778847 0.487839
000380 4c b6 55 bf ca 40 ca bc 78 78 0d bf 3d bb c2 be
       -0.8348129 -0.024689097 -0.55261946 -0.38033476
000390 f6 be 6d bf a5 db 84 3f 27 fb 8b be 03 bd d2 be
       -0.9286951 1.037953 -0.27340052 -0.4115983
0003a0 de fa 9f 3c ee 4c 84 bd ca f1 f2 3e 06 df 31 bf
       0.019528802 -0.06459986 0.47450095 -0.6948093
0003b0 c5 57 02 bf 93 a6 f6 bf 53 9b 28 3d 2d 47 3d 3f
       -0.50915176 -1.9269584 0.041163754 0.7393673
0003c0 0b a9 9f 3d 74 92 88 be 89 ce b1 bf db 64 cc 3e
       0.07795914 -0.26674235 -1.3891155 0.39920697
0003d0 d4 49 10 40 df 65 c5 3f 94 82 81 bf 4e 29 c0 3e
       2.254506 1.5421714 -1.0117974 0.37531513
0003e0 33 92 33 3f a1 06 2f bf 7f cc a1 3f 60 32 b8 3e
       0.7014496 -0.6836949 1.2640532 0.35975933
0003f0 ae a1 72 3f df 70 03 3f 6a 79 95 bf 6f dd 09 3f
       0.94777954 0.513441 -1.1677678 0.53853506

fc1.bias f4 [64]
000000 7e 07 cd 3e 15 3f de bd 20 44 2d 3e 67 5d 87 3e
       0.4004478 -0.10851876 0.16920519 0.26438448
000010 0d b6 95 be 18 9e fb 3c b0 e8 8e 3c 42 62 eb 3e
       -0.29240456 0.030715033 0.017444938 0.45973402
000020 a4 00 a5 3e 87 62 00 3e 87 4e af 3e 32 93 d2 3e
       0.3222705 0.12537585 0.342396 0.41127926
000030 c7 14 b7 3c 8e e0 11 3f 74 05 d1 be 54 4d a9 b9
       0.022348775 0.5698327 -0.40824473 -0.00032291806
000040 51 45 dc be cd 01 39 3c 49 53 91 bd a9 7a 3b 3d
       -0.43021634 0.011291933 -0.070959635 0.045771275
000050 84 31 da be 2c d5 09 3f 98 ec ab 3e 94 c6 83 bb
       -0.42615902 0.538409 0.33578944 -0.004021475
000060 14 e5 f8 3d a4 40 9e 3e ef 44 11 be d6 3f 59 be
       0.12153068 0.30908692 -0.14186452 -0.21215758
000070 8f 39 1a 3f 02 53 25 bf b7 fc 90 3e 6e 16 2e 3e
       0.6024408 -0.64579785 0.28317806 0.17000744
000080 88 93 78 3e 44 c7 d6 be b5 f7 aa 3e da 25 ec 3e
       0.24275029 -0.41948903 0.3339211 0.46122628
000090 dc c7 b8 3e 8d 76 b7 3e 5a be ce be b2 c3 ae 3e
       0.3608998 0.35832635 -0.40379602 0.3413368
0000a0 23 b8 5a be 0f ad 7a 3d 9e 02 0e bf 77 af 7f 3e
       -0.21359305 0.061200198 -0.55472744 0.24969278
0000b0 d2 f2 c9 3d 4b 95 b4 3e c6 2f 91 3d da a5 03 3f
       0.098607674 0.35270151 0.0708919 0.51424944
0000c0 34 d9 43 3e 69 d2 01 3d c0 81 6f 3e 66 42 30 bd
       0.19125825 0.031694803 0.2338934 -0.043032072
0000d0 c5 d1 73 bf 2d dc 60 3d d5 07 ab 3d 43 5a 3f 3d
       -0.9524196 0.054897476 0.08351103 0.04671694
0000e0 46 4c b3 3e c1 fb 3d 3e 96 01 e5 be 7c 26 f7 be
       0.3501913 0.18553068 -0.44727772 -0.4827155
0000f0 ec 2b b1 3e 2b 71 db 3e 15 b0 bb 3b bd 8c d3 3e
       0.34603822 0.42859778 0.0057277777 0.41318312

fc2.weight f4 [64, 64]
000000 ad 19 3b 3f f5 ae f3 be 9a 8b e8 bf 26 2c 6d 3f
       0.73086053 -0.4759442 -1.8167603 0.9264549
000010 35 0e d3 bf 75 5b e9 3e 83 cb 9b bf 62 e1 8a bf
       -1.6488711 0.4557759 -1.2171482 -1.0850031
000020 a4 e2 43 3e 43 36 cb bf 8f 7d e4 3e 30 d3 e5 3e
       0.19129425 -1.5875934 0.44627044 0.44887686
000030 6c 28 aa 3f 98 ea c3 3e 00 63 ff bf 7c c9 37 bf
       1.3293586 0.38264918 -1.9952087 -0.71791816
000040 f5 af 17 3f d1 85 dc bd 2f be 1b 3f fb 86 15 3f
       0.59252864 -0.10767711 0.6083707 0.5840909
000050 d8 7b eb bf 3c cf 12 bf ab 8a 2f be e0 58 c6 bf
       -1.8397169 -0.57347465 -0.17142741 -1.5495872
000060 76 7d ad bd c3 64 a6 be 34 08 86 3e b9 d9 a5 bf
       -0.084711954 -0.3249875 0.26178133 -1.2957069
000070 f4 f2 11 bd 7e 59 f8 3e fe 4e 60 bf ca 7e 5f 3f
       -0.03563209 0.48505777 -0.8762053 0.8730284
000080 76 9d 91 bf 35 3e 76 bf ce e8 92 be ef 84 d8 3e
       -1.1376178 -0.9618867 -0.2869324 0.4228892
000090 51 56 a5 bf 25 79 ad be 2f 5d cf bf 10 b5 61 bc
       -1.2916967 -0.33881488 -1.6200312 -0.013776079
0000a0 3b a8 63 bf f6 41 5d 3e 30 ef 12 3f 8f d6 45 3e
       -0.88928574 0.21607193 0.5739622 0.19320129
0000b0 e6 1f 42 c0 3c eb af bf 5e b9 55 3f 1a 6f 72 3e
       -3.033197 -1.3743663 0.8348597 0.23675194
0000c0 47 29 03 bf 12 ce 75 3f 86 2b 1f be 6c d2 0e 3e
       -0.5123486 0.96017563 -0.15543947 0.13947457
0000d0 53 3a c9 3f 28 b4 d9 3e cd 18 c9 bf b0 b9 63 be
       1.5720924 0.4252026 -1.5710694 -0.22238803
0000e0 e7 2c 8c 3e d8 0d 85 bf 76 5a 15 be ad 12 a1 bd
       0.27378008 -1.039485 -0.1458529 -0.0786489
0000f0 1c a8 ea be 74 38 9f be ab 69 36 3f 02 09 b2 3e
       -0.45831382 -0.31097758 0.71254987 0.34772497
000100 24 23 13 3f d2 97 3e 3c a3 75 ff bf 5f 9e 28 3f
       0.57475495 0.0116328765 -1.9957775 0.65866655
000110 55 4d 2b c0 3c 31 21 c0 51 43 c3 bf 8c c7 40 3f
       -2.676595 -2.51863 -1.5254918 0.75304484
000120 1a 8a dd 3d ac b4 e2 be b1 aa 9a 3d f6 33 f1 3e
       0.108173564 -0.44278467 0.07552088 0.47109956
000130 fb 2f 2b 3f c2 0b 90 be f2 37 d6 3f 92 ff 2d bf
       0.6687009 -0.2813397 1.6735823 -0.67968094
000140 38 76 eb c0 8b b6 88 3e 57 21 d9 bf fc d1 3b c0
       -7.358181 0.2670177 -1.69633 -2.9346914
000150 07 3e 32 40 56 66 0d bf e1 08 21 3f 8b e4 d4 3d
       2.7850358 -0.5523428 0.62904173 0.103951536
000160 69 fd 7a 3e b2 24 1f c0 1a a5 f0 3d bf 65 4d 3e
       0.24510731 -2.4866147 0.117502406 0.20058344
000170 d3 79 db bd cf 4e 09 c0 84 24 a4 3f d7 ad f8 3e
       -0.107165955 -2.145435 1.2823644 0.4857013
000180 d4 90 ac 3f 38 d6 ed bf 26 eb 2f bc 7b 50 3b 3e
       1.3481698 -1.8580999 -0.010737216 0.1829242
000190 ad d6 50 be d4 68 c0 3d 91 55 18 40 f7 a6 92 3b
       -0.20394392 0.093949944 2.3802226 0.00447547
0001a0 53 60 43 c0 2f 79 a5 3e 48 2b 86 c0 5d 1b 91 bf
       -3.0527542 0.32319018 -4.1927834 -1.1336476
0001b0 58 25 11 bf 1d a3 ef be 83 e1 e3 bf 25 25 b2 be
       -0.5669761 -0.46804133 -1.7803196 -0.34793964
0001c0 4a 5d 1a bf fe 33 1e 3f 36 9e 5b be 82 1e 0b 3f
       -0.602986 0.61798084 -0.21447071 0.54343426
0001d0 2c fc 09 bf d8 7e 96 be ca 61 08 40 a1 93 58 40
       -0.5390041 -0.2939365 2.1309686 3.3840106
0001e0 49 6e 1c be 6a 21 f8 be d6 4c db 3f 92 25 da 3f
       -0.15276445 -0.48462993 1.7132823 1.7042716
0001f0 5b b8 80 bd fc 7f a6 bf 31 24 bd bf 5b 56 1f 3e
       -0.06285163 -1.3007808 -1.477667 0.15560286
000200 19 96 ac 3d b6 e3 3d 3d f1 ac 3a 3a 0e 18 de bd
       0.08427066 0.04635974 0.0007121107 -0.10844432
000210 3b fc 7e 3c c1 37 70 3d e0 54 0b 3d 34 2f a6 3d
       0.015563066 0.05864692 0.03401649 0.08114472
000220 2a bf 0d be f0 1f 5d 3d f0 6a 85 3d e1 65 9f 3c
       -0.13842455 0.053985536 0.06514537 0.01945776
000230 45 6a 90 3c 14 7c d5 bd 98 c7 8c 3c da eb e2 3d
       0.017628798 -0.10424057 0.017185017 0.11080141
000240 98 cd 80 bd b4 92 4f bd 40 9e c7 3c 5e 9f e5 bd
       -0.06289214 -0.050677016 0.024367452 -0.112120375
000250 54 74 01 bd 57 79 0b bd 69 20 5b bd 0a b6 f3 bd
       -0.03160508 -0.034051266 -0.053497706 -0.118999556
000260 b0 31 10 be 73 ac fc bd e0 c4 39 3c 10 e4 e9 bd
       -0.14081454 -0.123375796 0.011338443 -0.114204526
000270 7f a9 ed bd 16 dc 9a bd fc 80 01 bd 36 de f8 bd
       -0.116045944 -0.07561509 -0.03161715 -0.121517584
000280 c8 af 86 3d e0 e2 c2 3d ab cc 06 be 9e b2 c1 3b
       0.06576496 0.09515929 -0.13164012 0.0059111854
000290 2a 77 a6 bd 1d 23 e6 bc c1 77 f0 bd d9 16 05 be
       -0.081281975 -0.028092915 -0.11741591 -0.12996997
0002a0 44 0b c4 bd ba c6 6f 3d 26 5e 84 bd de de 5c bd
       -0.09572461 0.05853913 -0.0646327 -0.05392348
0002b0 b2 63 a6 bd 7c 29 9a bd a0 35 21 bc 81 d8 05 bd
       -0.08124484 -0.07527444 -0.009839445 -0.032677177
0002c0 e2 78 f7 bd 92 71 ae bd eb a8 e0 bc cb 65 0e be
       -0.120836034 -0.085177556 -0.027424296 -0.13906018
0002d0 38 2b 72 bd ad 8f f6 bd 30 57 c5 bd ca cc 37 3c
       -0.059123248 -0.12039123 -0.0963577 0.011218259
0002e0 22 9d 16 be 56 4c e5 bd 6e 3b ea 3d b4 4d c0 bd
       -0.14708379 -0.111962005 0.114371166 -0.09389821
0002f0 16 e4 15 bd 1c 49 48 bc d0 01 1a be 01 00 5c 3d
       -0.036594473 -0.012224462 -0.15039754 0.05371094
000300 d5 5a b1 bd 1b 1f 0e 3e f3 93 91 bd 21 26 6f 3c
       -0.08659903 0.13879053 -0.07108297 0.014596493
000310 c3 65 ba 3d e7 0a 10 be 2a 5a 06 be df d5 57 bd
       0.09101441 -0.14066659 -0.13120332 -0.052694198
000320 06 df e5 3c 0e 31 80 bd 49 e4 39 be 1e 4e 08 be
       0.028060447 -0.062593564 -0.1815349 -0.1331105
000330 7c 43 c0 bd 33 f0 bc bc b1 fb 04 3e 4b bd bf bc
       -0.093878716 -0.023063755 0.12986638 -0.023405692
000340 80 77 df bd 38 e5 8f bd fb 4f da 3c 10 c5 58 3d
       -0.10911465 -0.07026142 0.026649466 0.05292231
000350 e6 76 37 3d 22 ec 0e be ea bc 08 be 35 fc 22 bd
       0.044791125 -0.13957265 -0.13353315 -0.039791305
000360 c8 e9 8c bd 82 94 ff bd 3e d4 c1 bd 70 11 85 bb
       -0.06880528 -0.124794975 -0.0946431 -0.0040609166
000370 7e a1 83 3c 60 68 dc bd 6c dc 93 bd 16 c8 cd 3b
       0.016068216 -0.107620955 -0.072197765 0.0062799556
000380 10 7c 03 be c8 2e 06 3d 67 a0 1a be ee 9e 01 3d
       -0.12840295 0.032759458 -0.15100251 0.031645708
000390 1a 79 96 bd c1 78 c1 bc 21 eb 62 bd dc 0d 41 be
       -0.07347317 -0.02361715 -0.055400018 -0.18852943
0003a0 1a d8 4a 3d ff e6 f3 bd 1f 19 ad 3d ef 04 73 bc
       0.049522497 -0.119092934 0.08452057 -0.014832719
0003b0 9f f2 ad bc bc 97 58 bc ea 9d 34 bc 4b 71 ed bd
       -0.021233855 -0.01321977 -0.011023978 -0.115938745
0003c0 69 70 95 bd 97 11 02 bd 5a 90 ab 3d d6 bb 9a 3d
       -0.07296831 -0.031755056 0.08377142 0.07555358
0003d0 f0 06 15 3c b1 f5 ae bd a1 9c f6 bd 08 4c a7 bd
       0.009095892 -0.08542956 -0.12041593 -0.08168799
0003e0 79 4c 51 bd de bc f6 3d ac 2e 1f bc d3 74 e4 bd
       -0.05109832 0.12047742 -0.009715717 -0.11155095
0003f0 2d 47 2c bd a3 ba 28 bc 9c 26 8f 3c 37 67 e0 3c
       -0.042060066 -0.010298404 0.017474465 0.027392967

fc2.bias f4 [64]
000000 7c f4 49 3b 92 c7 80 bd f9 3d 22 be 08 07 06 be
       0.003081589 -0.06288065 -0.15843953 -0.1308862
000010 54 44 60 3d 4d d8 37 bf bc bc aa bb 24 09 ea bd
       0.054752663 -0.71814424 -0.005210487 -0.11427525
000020 d4 41 c1 3e 85 0b c6 bd 3f b1 fd be 88 49 d8 3e
       0.37745535 -0.09670166 -0.4954929 0.422436
000030 c3 67 b3 bd 1c ef 95 be a5 7a 5b 3e 7d 27 b7 bc
       -0.08760025 -0.29283988 0.21433504 -0.022357697
000040 c1 47 22 be de 67 af 3e f9 0b ca 3d e0 cc 8c b9
       -0.15847684 0.34258932 0.09865565 -0.00026855525
000050 e4 4a e8 3e 58 4a 60 be 55 39 28 3d 56 40 ec 3e
       0.45369637 -0.2190336 0.0410703 0.46142834
000060 74 96 f4 3e c4 f2 f5 bc 05 46 a2 be dc 55 59 bd
       0.47771037 -0.030022986 -0.31694046 -0.053060398
000070 84 12 0b 3e 6b 48 8c 3e 39 44 bb 3d 4f b7 07 3c
       0.13581282 0.27399 0.09143872 0.00828345
000080 2f 5d 3d 3e e3 67 7f 3d 49 57 28 3e e6 b1 a5 3d
       0.18492578 0.062354933 0.16439547 0.08090572
000090 36 3b 2e 3e b6 5a f4 bd 88 76 7a ba 0c d9 a5 3e
       0.17014775 -0.11931364 -0.00095544057 0.32392156
0000a0 bf ec 3b be ac 8e a6 bd 2b cc b4 bd 71 7a 95 3e
       -0.1835203 -0.08132681 -0.088280044 0.29194978
0000b0 07 d9 07 3e a8 aa 19 bd 8d b3 1d be 59 96 87 bd
       0.13266383 -0.037516266 -0.15400524 -0.066204734
0000c0 4f 9b 9a 3d cf 24 7c 3e 41 08 c3 3c 6b bf e1 3d
       0.07549154 0.24623416 0.023807647 0.11022838
0000d0 29 31 90 3e d9 d6 ff 3e 93 87 c5 be bc 5b 05 3e
       0.28162506 0.49968603 -0.38579997 0.13023275
0000e0 3d 2b dd bd b2 98 86 bd e2 b8 f3 3e 73 77 31 bd
       -0.10799263 -0.06572093 0.47601992 -0.043326806
0000f0 aa dd cc be b0 ed 21 3d b2 9d 10 be 99 3f 5e 3e
       -0.40012866 0.039533317 -0.14122656 0.21703948

fc3.weight f4 [4, 64]
000000 ef b2 9d 3f fa 63 51 40 20 69 30 bc 37 50 17 3d
       1.2320231 3.271727 -0.010767251 0.036941733
000010 14 7c 65 bf 2a a8 bc bf be 60 44 bf 43 ad d1 be
       -0.89642453 -1.473882 -0.76710117 -0.409525
000020 76 0f ba 3e 22 be 99 3f ca 07 6f 40 74 63 88 3f
       0.3633992 1.2011149 3.7348504 1.0655351
000030 08 0d 1b bd 14 5a 94 bf fb 99 20 bf aa b6 91 3f
       -0.037854224 -1.158999 -0.62734956 1.138387
000040 c0 3d aa 3f cd ee b3 bf a6 f8 00 40 fe 93 cd be
       1.3300095 -1.4057251 2.0151763 -0.40151972
000050 57 68 79 3f 9d 35 70 bf b4 62 5a 3d 59 76 f5 be
       0.97424835 -0.9383181 0.053316787 -0.47941855
000060 5e 4c f1 3f 3c c8 bf 3f bf 34 88 bf fd 06 ea 3f
       1.885143 1.4982982 -1.0641097 1.8283383
000070 da fb 01 40 54 da ec 3f 1c ad 7d bf 11 fa 9a bf
       2.0309968 1.8504128 -0.9909227 -1.2107564
000080 e4 2b e7 3e 2b 51 bd 3f 32 c6 3c 3f 4e 2b b0 3f
       0.45150673 1.4790395 0.7373992 1.3763216
000090 f0 2d 93 3f c4 0c c0 3d d9 a4 74 bf 11 4a 61 bf
       1.1498394 0.09377435 -0.9556404 -0.8800364
0000a0 8a 1e 9c bf b6 1b 36 bf ce 5e 0a bd 67 29 cd be
       -1.219682 -0.71136034 -0.03378182 -0.4007065
0000b0 31 6e 41 bf 07 81 9a 3f 57 be 8c bf e4 59 83 3d
       -0.75558764 1.2070626 -1.0995587 0.0641363
0000c0 55 77 69 bf c7 2a 17 bf c0 74 16 40 fd 72 b8 3f
       -0.9119771 -0.5904965 2.3508759 1.4410092
0000d0 33 b1 8e 3f e5 bb 8a 3f 1c a0 f7 bf 0f 03 23 bf
       1.1147827 1.0838591 -1.9345737 -0.6367654
0000e0 4e b7 0e 40 0a 6e b2 bf dc a2 77 3f fd fa 93 bf
       2.229938 -1.3939831 0.9673288 -1.156097
0000f0 89 61 b9 bf e5 34 9e bd db f5 80 3c 1d cf 13 40
       -1.448289 -0.077249326 0.015742233 2.3095162
000100 41 45 cd 3f f7 9f 5b 40 e5 6a c7 3c e1 4c 9a 3d
       1.603676 3.4316385 0.024342963 0.07534195
000110 c4 18 2b bf 4b 70 d2 bf 11 4b 6e bf 6a d2 0a bf
       -0.66834664 -1.6440519 -0.9308329 -0.54227316
000120 c2 f1 39 3e 0a 24 6e 3f 6b d9 46 40 10 f2 6d 3f
       0.1815863 0.9302374 3.1070201 0.92947483
000130 70 4d 03 3d 22 dc 91 bf c6 62 31 bf 69 30 8a 3f
       0.032056272 -1.1395304 -0.6929134 1.0796024
000140 5a 51 82 3f 44 57 b5 bf 61 5a c8 3f 0c e9 17 bf
       1.0181077 -1.4167256 1.5652581 -0.59339976
000150 5a 32 9c 3f 34 d8 45 bf d3 82 fb 3d 0a 54 6c bf
       1.2202866 -0.77283025 0.12280812 -0.92315733
000160 ac 78 e3 3f 18 46 d5 3f 97 c3 bb bf 03 2d 10 40
       1.7771201 1.6662016 -1.4669064 2.2527473
000170 f4 05 c4 3f 2f 8d bc 3f 61 dc 78 bf 97 13 18 bf
       1.5314317 1.4730586 -0.9721127 -0.5940489
000180 e3 c4 b7 3e 50 8a df 3f d7 5c 66 3f 24 2f 88 3f
       0.358924 1.7464085 0.8998541 1.0639386
000190 0c d2 99 3f 92 e7 c6 3d 6a 0e 20 bf a3 02 30 bf
       1.2017226 0.09712137 -0.62521994 -0.68754023
0001a0 a8 4f ae bf 3c 7f 72 bf ea f3 3a 3d d6 91 06 3c
       -1.3618059 -0.94725394 0.04564277 0.008213481
0001b0 10 c1 6e bf cc 2a 9e 3f aa 19 75 bf 6c 1c f7 3d
       -0.9326334 1.235681 -0.95742285 0.12065968
0001c0 8d c9 47 bf 49 de 75 bf b3 ca 0d 40 76 4d 7a 3f
       -0.7804192 -0.96042305 2.2154968 0.97774446
0001d0 b3 29 b8 3f 5f b8 35 3f 81 31 03 c0 0a d2 36 bf
       1.4387726 0.7098445 -2.0498965 -0.71414244
0001e0 de ba 1b 40 73 d3 ad bf b9 2c 9c 3f c5 a2 97 bf
       2.4332805 -1.3580154 1.2201148 -1.1846548
0001f0 f5 da c0 bf 30 d0 f4 3c 99 c9 a5 3d 64 fb 03 40
       -1.506682 0.029884428 0.08095092 2.0622187
000200 93 62 d3 3f d8 bb 54 40 2c ea 14 3d 55 6a 28 3d
       1.6514457 3.323965 0.036356136 0.04111703
000210 b6 dd 07 bf 9b 7e c1 bf 2b 8c 49 bf 61 0f 97 bf
       -0.5307268 -1.5116762 -0.78729504 -1.1801568
000220 fc 0f 98 bf fb f6 d1 3f 7b 03 1b 40 c8 4c 5d 3f
       -1.1879878 1.6403497 2.4220874 0.86445284
000230 da eb 72 bc 81 64 c9 bf f0 90 4c bf 4f 1c ca 3c
       -0.014826739 -1.5733796 -0.7990866 0.024671702
000240 f5 7b 90 3f d1 7a a8 bf ef b8 94 3f 8d 08 7e bf
       1.1287829 -1.316248 1.1618937 -0.992318
000250 98 ef 9a 3f 86 7b 7a bf 3d 3f 48 3d 8a f3 46 bf
       1.2104368 -0.9784473 0.048888434 -0.7771536
000260 39 a2 eb 3f 6a 62 c3 3f 35 0f c7 bf 8e 7b ce 3f
       1.8408881 1.5264409 -1.5551516 1.6131456
000270 51 bd f5 3f dd 6f e5 3f de ef 5c bf 75 98 3a bf
       1.91984 1.7924763 -0.8630351 -0.7288888
000280 ae 4c 89 bf 2a 37 d2 bf 52 8c ef 3e 4b a1 a9 3f
       -1.0726526 -1.6423085 0.46786743 1.3252348
000290 94 42 b2 3f b0 05 1e 3c 79 fc 03 bf e5 2a 8b bf
       1.3926568 0.009644911 -0.5155712 -1.0872465
0002a0 ed 01 98 bf 15 c6 49 bf 61 0d 50 bc 6c a5 46 3f
       -1.1875588 -0.78817874 -0.012698502 0.77596164
0002b0 a4 25 03 bf bd 44 be 3f 73 8b 45 bf 20 8d 3a bd
       -0.5122931 1.4864727 -0.7716591 -0.045544744
0002c0 a0 f6 4c bf c3 4e 06 bf a1 f2 1b 40 30 4f cb 3f
       -0.8006382 -0.5246393 2.436684 1.5883541
0002d0 e2 0e f8 be 7d 68 7a 3f 40 4c 1a c0 bc 0c 6e bf
       -0.48448855 0.97815686 -2.410904 -0.9298818
0002e0 c6 af 1f 40 9e 67 c2 bf 57 0f 8d 3f 81 44 68 bf
       2.4951034 -1.5187871 1.1020306 -0.9072953
0002f0 a4 aa 9d bf 32 7a eb 3d d8 1b 2a 3d 80 77 25 40
       -1.23177 0.11497916 0.04153046 2.5854187
000300 c6 3e 6b 3f 92 ba 4f 40 d6 e2 a8 3d bd 39 25 3d
       0.9189266 3.2457623 0.082463905 0.040338267
000310 13 6b bc bf 2a 21 86 bf 50 c2 8a bf 37 fc b3 bd
       -1.4720176 -1.0478871 -1.084055 -0.087883405
000320 ad dc 04 bf df d9 b8 3f 2a 23 a4 3f 25 99 37 3f
       -0.51899225 1.4441489 1.2823231 0.71718055
000330 b0 d0 76 bd 01 50 0e c0 4c 0b f9 be 07 11 10 bf
       -0.060257614 -2.223633 -0.4864143 -0.5627598
000340 db 7a d1 3f ff 2b 88 bf cf 92 ec 3f ad 95 18 3f
       1.6365618 -1.0638427 1.8482302 0.5960339
000350 43 c5 a1 3f 8d 34 b1 bf f0 35 4f 3d d9 95 05 3f
       1.2638324 -1.3844162 0.05058855 0.52181774
000360 56 18 04 40 2d 5d 04 40 0b 36 9f bf 9d 93 8b 3f
       2.0639853 2.068187 -1.2438368 1.0904423
000370 d7 6e 94 3d 90 82 e8 3f 41 fc 1a bf a5 20 23 bf
       0.072477035 1.8164845 -0.6054116 -0.63721687
000380 b5 c4 d5 3e 02 37 f0 3e 9e 75 87 3f 6c 50 a9 3f
       0.41751638 0.46916968 1.0582769 1.3227668
000390 c2 f8 a8 3f 04 02 a7 3d 2d 09 30 bf 13 a9 5e bf
       1.3200915 0.08154681 -0.68764 -0.86976737
0003a0 81 be 4e bf ca ac 36 bf f0 a2 26 bc a8 67 e7 bd
       -0.80759436 -0.71357405 -0.010170683 -0.11299068
0003b0 a0 39 64 bf d8 b6 ce 3e a1 91 7c bf 74 d0 09 3d
       -0.8915043 0.40373874 -0.9865971 0.033646062
0003c0 7c 21 8e bf 00 3a ee be ae 9e 2a 40 f8 6e 1b 40
       -1.1103969 -0.46528625 2.665935 2.428648
0003d0 34 21 70 3f 3e 1a 81 3f cb 66 1a c0 6f a6 13 c0
       0.93800664 1.0086133 -2.412524 -2.3070333
0003e0 ad ee dc 3f b2 dc 8e bf 1e 41 67 3f 7d 52 ad bf
       1.7260338 -1.1161101 0.90333736 -1.3540798
0003f0 56 90 28 bf 56 5e 92 3d d0 2b 57 bc a9 c6 17 40
       -0.6584524 0.071468994 -0.013133004 2.3715003

fc3.bias f4 [4]
000000 d9 b8 fd 3d 9a 1d 76 3d b0 15 ee 3e 29 46 22 3f
       0.123887725 0.060086824 0.4650092 0.63388306
