QNet_weights.pth (torch, 22714 bytes, 6 tensors)

layers.0.weight f4 [64, 8]
00000000: ed77 3fbf 55a6 2ebf bdb6 42be c6de 1440
00000010: 87b4 383f 6785 c73e b953 86bc ee97 753d
00000020: 8ba5 fbbd 6f5d 933d eecf cd3f 59ab bebf
00000030: 2564 3f3f d0eb ecbe 2b73 5a3f 3fd0 ed3d
00000040: 319f a23d 683d 583f 8798 9bbe 9fb8 113e
00000050: bec5 073f be35 e23e 33d5 27bd d05e 59bf
00000060: d0c2 91be 890d df3e 2611 8dbe 9fb5 d3be
00000070: ec96 1abe 86e0 d03b ab34 a9bf e2c8 8fbf
00000080: 74ed 7cbf 0648 34bf 73a2 bebe 3c9c 533f
00000090: 3328 15bf d9d8 31bf 462d fb3e 133a b03f
000000a0: 6b8e fabd 31f0 84be 59c9 333f 17bc dbbf
000000b0: a5b3 f83d 7e6f cdbe d382 a2bf 5f42 94bf
000000c0: 1d00 393e a60b bd3d f8d6 3e3e 969e 383d
000000d0: e263 5ac0 00f2 123f 2dfd a9bf 2a0d 8b3f
000000e0: 22b8 91be 095e 84be d866 82bf fead 2ebe
000000f0: d860 933f 4a64 c23f 74ae 8c3d 3df9 b73d
00000100: 4c0e e9bd 442f 383d 8d5e 2abf 8ffc 08bf
00000110: 0e28 843f 8ef3 30bf 0eef 17c0 7dbd a33f
00000120: b95f bbbd 80c5 3d3e 0e00 5b3e 21ff 913e
00000130: 5dae e2be 723e 9abf 07a6 dabf cec2 3d3f
00000140: cb27 c23e be60 b7be fd45 613d eb21 73bf
00000150: 262a 5c3e 42ba 27bf acbb 27bf 3eb6 a03e
00000160: 022d 48bd 46bb 4e3f 0471 733f 57cf fbbe
00000170: 269d d13d f9d0 153f f7f0 0dbf 2e2f 5abe
00000180: 493f 3fbe b59d e03e 00fa aabc 8f7b 1abe
00000190: 0707 113e 53ab eebe 89de 08bf 573c 9abf
000001a0: ea4b 5bbe 82f4 e83e 050a 82be 4c7b b6bd
000001b0: 4813 ce3e 9560 6fbf b9cf 5fbd 52cb acbf
000001c0: 2bdf 8cbf c84c 52be f129 17bf 0f9e 80bf
000001d0: 24de 0c3f ec6d 89bf fa15 55bf afb6 013e
000001e0: 1da4 423e ad73 8ebe b823 6d3d 25ba 6440
000001f0: d321 e03e 70b7 f53e 3af3 893f 12bc b83f
00000200: 8041 9b3d 0159 bcbc 8e6f 973f 666b b03e
00000210: a051 fa3e db39 d2be 2593 dd3e 08bb 903f
00000220: 376f b4be 790e 70be 7e5e d9be 7448 7abf
00000230: a4da 323f 9835 82bf 54e5 00c0 a2d6 283f
00000240: a949 f6be 32ce 813e 1cf8 9abe a54b a23e
00000250: bde0 9c3e 2f08 c03f 7c97 013f 2daa dfbf
00000260: cec4 4bbe f0cf 0b3e c7c1 7bbe e320 a33e
00000270: 35b0 813e 5768 a83f e424 1e3f 93c2 13c0
00000280: ee28 09be 3b4a f13e 8943 053d 6884 873e
00000290: b142 bc3e d924 99be 6ca0 94be 3140 60bf
000002a0: 3310 bcbe 4b8e d53e a75a 0bbe 4ee5 dbbe
000002b0: 2950 2d3f ebb9 54be e9f1 e2bd c686 323f
000002c0: 663b 73be 09de febd 4e51 823d 5078 83bf
000002d0: dc81 dabd f3d2 f9be 56e8 d2bf 7968 bfbf
000002e0: 6c98 4cbe 5e2c f93e 4744 89be 2f5e 70be
000002f0: 4170 90be 72b1 a6be 9043 78bf 7dfc 1c3f
00000300: 79e9 a8be 4583 ef3d 0a4e 283c 968a fa3e
00000310: cd62 10bf 3741 b1bf a867 d8be dde8 a4bd
00000320: 4034 c5be 7659 d63e 878a 31bd 1a30 a7be
00000330: f16e 893f 6ff1 2e3f 659e 6f3e 266a e83b
00000340: 46a7 7bbf 952d 74bd b924 5e3e f26a a63e
00000350: 6743 0cc0 a18e dc3c 1f29 323f d9ec 8d3f
00000360: d2f0 833f fdf4 4a3f 0034 c63e 2cf9 c3be
00000370: da25 843e f1d3 ba3d c876 5ebf 53fb 49bf
00000380: de60 f8bd f4a8 d8be 65cc 7c3e a09f 95bf
00000390: 3ccf eb3e f5d9 25bf 287f edbf 0287 833f
000003a0: 4f29 953e 53bf 08bf 2bc7 9f3e 09c2 a2bf
000003b0: 28b3 a73e e3a2 1abf 67da debf d2d3 833f
000003c0: 36c4 59be 1705 f73e 45ff 2b3f 11fb dfbe
000003d0: 808c 7bbf c98a 613f 0552 91bf 5bda 76be
000003e0: 23df 4a3d f890 c03e 7720 093f 957e c53e
000003f0: 3650 debf 43b3 adbf 74f5 08be 3d6d 41be
-0.7479237 -0.6822255 -0.19015022 2.326097 0.7215046 0.38968965 -0.016397344 0.059959345
-0.12287434 0.071955554 1.607908 -1.4896041 0.74762183 -0.4627366 0.8533198 0.116119854
0.079405196 0.844687 -0.30389807 0.14230584 0.53036106 0.44181627 -0.040974807 -0.849103
-0.28468943 0.43565014 -0.27552146 -0.41349503 -0.15096635 0.0063744215 -1.3219198 -1.123318
-0.98799825 -0.704224 -0.37233314 0.8266027 -0.58264464 -0.6947151 0.49057978 1.3767723
-0.12234195 -0.25964502 0.7022911 -1.7166775 0.121436395 -0.40124124 -1.2696174 -1.1582755
0.1806645 0.092307374 0.18636692 0.045073114 -3.4123464 0.5740051 -1.3280388 1.0863392
-0.28460795 -0.25852993 -1.0187635 -0.1705856 1.1513929 1.5186856 0.06869212 0.08983085
-0.1137968 0.04496695 -0.66550523 -0.53510374 1.0324724 -0.69121635 -2.3739657 1.2792202
-0.09149117 0.18532372 0.2138674 0.2851496 -0.44273654 -1.2050307 -1.7081918 0.74125373
0.37920985 -0.35815996 0.054998387 -0.9497363 0.21500453 -0.6551858 -0.6552074 0.3138904
-0.048871048 0.80754507 0.95094323 -0.49181625 0.10235052 0.5852199 -0.5544581 -0.2130706
-0.18676485 0.4387032 -0.020871162 -0.15086196 0.14162837 -0.46615085 -0.5346456 -1.2049664
-0.21415678 0.45499045 -0.2539827 -0.08910236 0.40249085 -0.9350675 -0.05464146 -1.3499548
-1.1005605 -0.20537102 -0.5904837 -1.0048236 0.5502646 -1.073667 -0.8323666 0.12667345
0.19007917 -0.2782263 0.057895392 3.5738614 0.43775806 0.47991514 1.0777352 1.4432395
0.075808525 -0.02299166 1.1830919 0.34456939 0.488904 -0.41059765 0.43276325 1.1307077
-0.352411 -0.23443021 -0.42454904 -0.97766805 0.6986487 -1.0172606 -2.013997 0.65952504
-0.48103073 0.25352627 -0.30267417 0.31698337 0.30640212 1.5002497 0.5062177 -1.7473809
-0.19899294 0.1365354 -0.24585639 0.31861028 0.25329748 1.3156842 0.6177504 -2.3087509
-0.1339452 0.47126946 0.03253511 0.26468205 0.36769632 -0.29910925 -0.29028642 -0.8759795
-0.3673111 0.41710123 -0.136088 -0.42948383 0.6770044 -0.20774047 -0.11081297 0.697369
-0.23753127 -0.124446936 0.06363164 -1.0271091 -0.106693 -0.48793754 -1.6477153 -1.4953758
-0.1998002 0.48666662 -0.26809904 -0.23473428 -0.28210643 -0.32557255 -0.9697809 0.61322767
-0.32990626 0.116949596 0.010272512 0.48933858 -0.5640076 -1.3848027 -0.42266583 -0.08052228
-0.38516426 0.41865128 -0.043345 -0.32653886 1.0736982 0.6833715 0.23400266 0.007092732
-0.98302114 -0.059613783 0.21693696 0.32503468 -2.191614 0.02692348 0.69593996 1.1087905
1.0307868 0.7928007 0.38711548 -0.3827604 0.25810128 0.09122456 -0.86899996 -0.78899115
-0.12127851 -0.423164 0.24687345 -1.1689339 0.46056545 -0.647857 -1.855443 1.0275576
0.29133078 -0.5341694 0.3120664 -1.2715465 0.32753873 -0.60404795 -1.7410401 1.0299017
-0.21266255 0.4824607 0.67186385 -0.43746236 -0.9826126 0.88102394 -1.1353155 -0.24106734
0.049529206 0.37610602 0.5356516 0.38573137 -1.7368228 -1.3570331 -0.13374883 -0.18889327

layers.0.bias f4 [64]
00000000: 95f3 e0be e263 afbd 2ed9 193f 4b0d 073f
00000010: 3eb0 22be cc0c 343e fdd0 afbd cd5c 2cbe
00000020: 0439 fbbe dc02 613d c262 2e3f 1d17 b0be
00000030: f398 3a3f b644 353f 70ad 3f3d bfcc ec3d
00000040: afc7 ac3d f5d3 0bbf 7057 263d 18af f53d
00000050: 0fd0 283f 7edc 2b3f bd8c 513f 1655 d23e
00000060: 4a70 8f3c e3c4 203f 6155 413e ce02 0e3e
00000070: b5aa b1be 7cb3 34be 2b74 2bbe 056f 6b3e
00000080: 114d 16bc e529 273f a547 9dbb 6737 12bf
00000090: bce6 a23e 7087 a33e 51db 083f 3394 63be
000000a0: d76d ba3e 003a ab3e 708d c23e 05a1 f03e
000000b0: d118 573e 8143 e2bc 6f44 433f 8a8a 0e3f
000000c0: 8faf 5d3e 113c d93b 124a 3ebf 971c 233f
000000d0: 6610 32bf 2df9 123f 58c6 a5be 6130 9dbd
000000e0: 59d7 81be 556b f43d fe55 05bf 423a 25bd
000000f0: 227c 493d 5e26 143f 6705 a63e a9f3 8b3d
-0.43935838 -0.08563973 0.60097015 0.5275466 -0.15887544 0.17583007 -0.08584783 -0.16832276
-0.49066937 0.054934368 0.6811944 -0.34392634 0.7288963 0.7080797 0.046796262 0.1156249
0.08436524 -0.54620296 0.04061073 0.11996287 0.6594247 0.6713332 0.81855375 0.4108054
0.017509598 0.62800425 0.18880226 0.13868257 -0.34700552 -0.17646593 -0.16743533 0.2299157
-0.0091736475 0.652983 -0.0047998005 -0.5711579 0.3181666 0.31939268 0.5345965 -0.22224502
0.36411926 0.33442688 0.37998533 0.46997848 0.2100556 -0.027620079 0.76276296 0.55680144
0.21649002 0.006629475 -0.7433177 0.637155 -0.6955627 0.5741146 -0.32377887 -0.07675243
-0.2535961 0.119345345 -0.5208434 -0.040338762 0.049190648 0.57871044 0.32425997 0.06833584

layers.2.weight f4 [64, 64]
00000000: 7205 833f fcc3 81bf 67f0 e93d 0fae 663e
00000010: 291c 36bf 4a09 63bf db33 0cc0 9423 2b3f
00000020: ffc2 453f cbba c73e 3081 e93e b675 07bf
00000030: 0cf6 d63b 480c d53d 3352 66bd b9ab 8abe
00000040: a753 a9bd 34c6 253f f520 2a3f 7252 593f
00000050: d056 553e 1200 093e 8515 1cbf d192 a43e
00000060: b191 2d3e 672c 003e e18e adbf 6e3c 71be
00000070: 3853 3f3f ff52 0b3f 7f92 a4bd 9030 d13e
00000080: a6a9 5f3d a81e 683e 82e4 5bbe bcb3 913f
00000090: fa35 c9bd 6cc2 ef3d becd 313e 713c debe
000000a0: c241 113e 9362 293f 6df4 b5bd eba0 073f
000000b0: cee6 e9bd 2f0a 51bf 6c7d b33d e349 2b3c
000000c0: a0b6 423f d2a1 183f 6204 a53f ed2b 633f
000000d0: de0e 493f bfba 473e 1050 1a3f 3404 263f
000000e0: bc41 97bd fb67 973e 6bc3 323f 2d76 4abf
000000f0: f393 fc3d e733 f93c 5625 5a3d 6c50 2a3f
00000100: 75d3 d3bf d918 8fbf dcc9 f93d f61c 593e
00000110: f901 e2be b1b0 3fbf dda9 85bf 3cb6 a8bd
00000120: 5638 62bf 81e0 943e 2a7d d1be 7daa 5dbe
00000130: e2bd f63e 9616 dd3e 7664 aa3e d200 bbbf
00000140: d95d fc3e cbd7 05c0 b6ce aabe d56b fabd
00000150: 6198 d83e 1b6a 383e a975 bfbe 2fa0 9e3e
00000160: 4a56 be3e 8fdb 583c d29d 19be d5ff a73d
00000170: d42c a8bf 63ca f7bf 29d1 db3e 1362 463f
00000180: 45b7 80bf e373 5f3e 6793 043e cfa0 813f
00000190: a51a ce3d 1720 243f 18c1 9d3e 657a 18be
000001a0: 721c 2d3f 1d1e 2fbe 2e3a 463f 6618 9ebe
000001b0: 38fb 993e afb8 e6bf d192 8b3e 3068 c33e
000001c0: 2708 5f3e 1ff7 1dbd 5310 813f 43ef 853f
000001d0: 3222 03c0 0009 c73d 3c6d 16c0 e356 d63d
000001e0: b77d b2bf 4dd3 d33d e884 debf e0f9 d9bf
000001f0: 210d d93e cdf6 2f3e 618b 66be 2daa 183f
00000200: 5d4e 6dbf 198b b53d b01d 2bbe ba08 cabd
00000210: 8362 30bf 6d7a b2be 9f0d 623e a9d4 983f
00000220: 39eb 983f e004 213f 64ff 273f 7490 28be
00000230: 6d92 a7be 029a e4be a3ca cb3e 8d94 d4bf
00000240: d9fe f2bd d992 893f 0bae 723f 3d20 5e3f
00000250: cf8d 00bf b071 563a 1fee 0cbf 05b2 46bd
00000260: 56d4 8b3e b431 1fbe 1bb7 e2be 8fb6 0ebe
00000270: aa0e b23f 2323 a73f 15e1 18bd c923 383f
00000280: 400b b5be 10a2 1abd b659 b6bd 73dd ae3f
00000290: 2aef 7cbd c093 79bf 388a a3be 5344 303d
000002a0: 4992 883d a663 173f 5416 15be 98b2 fb3e
000002b0: b83f 34be 0c59 fcbe 1da4 f4be 9dce d9be
000002c0: 1aae 473f ac1d 273f ab71 943f 336c 333f
000002d0: 75d9 953f d7df 34bd 5e6c a23f 6234 5b3f
000002e0: a3bd aebe cf21 e33e 2d81 a73f d718 ebbf
000002f0: eaf4 da3d 20d3 c0be 0f6f 883e 3102 8f3f
00000300: 0094 ae3f 1c94 66bf 11ab 903e 12b0 f4ba
00000310: ec71 883e 5604 9dbf 9494 05c0 d846 793f
00000320: 4dd9 de3e 3317 08bc fb6a d63e 52a1 c63d
00000330: 119c 073e a2f4 4cbe aa01 52bc b579 82bf
00000340: c519 753e 8bae 903f 072a 943f e169 8f3f
00000350: 494e c7bc 80db 143e 453a fabe cb21 afbd
00000360: 1929 6cbe da62 9c3e 6be9 c7bf a4dc 6e3e
00000370: 39ad 8e3f 962a 813f fc21 bb3e 2386 4d3e
00000380: 430e f2be 3bf0 b73e 1beb 04bd ca21 993f
00000390: 7d65 193e e700 ab3d 828a 1bbe 6c31 d13d
000003a0: fff2 c8be 3225 5f3f 4b9f 2cbf a332 153f
000003b0: 681e 063f a3e6 9dbf 8127 32bd c0dc 9dba
000003c0: 07ea 7e3f c40c 653f 7ed9 7e3f a647 5a3f
000003d0: 081a 7e3f 1124 2e3e 552f 8c3f bdab e93e
000003e0: a9ec 8cbe 66b3 473e ad93 363f 00c4 a0be
000003f0: 0b02 83be 86c5 2f3e 4e43 973d f69c 393f
1.0236037 -1.0137935 0.11422806 0.22527336 -0.7113672 -0.8868605 -2.190665 0.6685116
0.77250665 0.390097 0.45606375 -0.5291399 0.006560093 0.10402733 -0.056230735 -0.2708414
-0.082679085 0.6475556 0.6645654 0.84891427 0.20833898 0.13378933 -0.60970336 0.32143262
0.16950108 0.12516938 -1.3559228 -0.23558208 0.74736357 0.54423517 -0.080357544 0.40857363
0.05460515 0.22667944 -0.21473888 1.1382976 -0.09824748 0.11707005 0.1736364 -0.43405488
0.14185241 0.6616604 -0.08884511 0.52979916 -0.114209756 -0.81656164 0.08764157 0.010454628
0.76059914 0.5962192 1.2891963 0.887389 0.7853831 0.19504832 0.60278416 0.64850163
-0.07385585 0.29571518 0.69829434 -0.7908657 0.123329066 0.030420257 0.053258263 0.66528964
-1.6548907 -1.1179458 0.12196705 0.21202454 -0.4414213 -0.74878985 -1.0442463 -0.082378834
-0.8836721 0.29077533 -0.40915805 -0.21647067 0.48191744 0.43181294 0.3327977 -1.4609625
0.4929035 -2.091296 -0.33360833 -0.122275986 0.42303756 0.18009226 -0.37394455 0.30981585
0.37175208 0.013235941 -0.1500161 0.08203093 -1.313868 -1.9358639 0.42933014 0.774934
-1.005593 0.21821551 0.12946855 1.01272 0.10063676 0.64111465 0.3081138 -0.1489044
0.6762153 -0.17101331 0.77432525 -0.3087799 0.30074477 -1.8025111 0.2726045 0.38165426
0.21780454 -0.03856575 1.0083107 1.0463642 -2.048962 0.097185135 -2.3504171 0.10465791
-1.3944615 0.10343037 -1.738431 -1.7029381 0.4239283 0.17183991 -0.22514106 0.5963467
-0.926977 0.088644214 -0.16710544 -0.09864946 -0.68900317 -0.34859028 0.22075509 1.1939899
1.1946784 0.62898064 0.6562407 -0.16461354 -0.32728902 -0.4464875 0.39803037 -1.6607834
-0.118650146 1.0747939 0.9479682 0.8676794 -0.5021638 0.0008180393 -0.55050844 -0.048509616
0.27310437 -0.15546304 -0.44280323 -0.13936828 1.3910725 1.3057598 -0.03732403 0.71929604
-0.35360146 -0.03775221 -0.0890383 1.3661331 -0.061751522 -0.97491074 -0.3194139 0.04303391
0.06668527 0.59136426 -0.14559299 0.49159694 -0.17602432 -0.49286687 -0.47781458 -0.42540446
0.7800003 0.6527965 1.1597189 0.70086974 1.1706988 -0.044158783 1.2689321 0.85626805
-0.34129056 0.4436173 1.3086296 -1.8366956 0.10691245 -0.37661076 0.2664723 1.1172544
1.3638916 -0.90069747 0.28255513 -0.0018668196 0.26649415 -1.2266948 -2.0871935 0.97373724
0.43525162 -0.008306312 0.41878495 0.09698738 0.13243128 -0.20015195 -0.01281778 -1.0193392
0.23935612 1.1303266 1.1575326 1.1204187 -0.024329321 0.14536858 -0.4887258 -0.08551367
-0.23062553 0.30544168 -1.5618109 0.23326355 1.1146613 1.0091121 0.36549366 0.200707
-0.47276506 0.3592547 -0.032450777 1.1963437 0.14980121 0.083497815 -0.15189555 0.102145046
-0.3924789 0.8716613 -0.6743056 0.5828039 0.52390146 -1.233601 -0.043494705 -0.0012043938
0.9957585 0.89472604 0.99550617 0.85265577 0.9925847 0.17005946 1.0951945 0.45638838
-0.27524307 0.19502029 0.71319085 -0.31399536 -0.25587496 0.17165193 0.07385884 0.7250513

layers.2.bias f4 [64]
00000000: b444 a3bd dd13 cc3e ef65 0cbf 66ad 44be
00000010: 76b7 783f 9bc3 473e 0f68 293e 9750 6b3c
00000020: d495 bbbe 4d81 a63b 67fd 19be 9ed1 86be
00000030: 20d2 b1be a1a0 8f3c 0d01 0cbf 1804 f2be
00000040: d49b 13bf 8c4b 61bd 8834 03be 9510 293d
00000050: 3965 ebbd bf9f f4bd c64b 1bbd d427 0fbf
00000060: 1294 12be c388 ac3e 25f1 d33d e919 21be
00000070: 74e4 01bf 6ac2 afbd 77df cebe 3723 ba3c
00000080: 27d1 07bf 6cd1 24be 9faa 74be 983b 07bf
00000090: 23b1 eebe 7995 19be f222 f73e e612 09bf
000000a0: 33c3 2fbe e58c a2be 1009 f63c 948c 5d3d
000000b0: 927e f7be bdc6 08bf 5805 27be dc83 763f
000000c0: ba7b 7f3f 7a22 5d3f 3564 04bf 1d79 e1bd
000000d0: 1ae8 26be db23 e9bd d1bb d7bd 30a6 71bd
000000e0: 2dcb b7bc 3f47 3ebe 98a8 96be ce7f e63e
000000f0: 9485 273e 1e82 383f 53d4 18bf fe12 dcbe
-0.079720885 0.39858904 -0.5484304 -0.19206771 0.9715494 0.19508211 0.16543601 0.014362476
-0.36637747 0.005081332 -0.15038072 -0.263318 -0.34730625 0.017532649 -0.54689103 -0.47268748
-0.5765965 -0.055003688 -0.12813008 0.04127558 -0.11493916 -0.11944532 -0.03791406 -0.5592015
-0.14314297 0.3369809 0.10348729 -0.1573254 -0.50739217 -0.085820034 -0.40404865 0.02272187
-0.53053516 -0.16095513 -0.23893212 -0.5282531 -0.4661952 -0.14998426 0.4826885 -0.5354446
-0.17164306 -0.3174812 0.030033618 0.054089144 -0.48338753 -0.5342825 -0.16310632 0.9629495
0.99798167 0.8638073 -0.51715404 -0.11009429 -0.16299477 -0.11383792 -0.1053387 -0.05899638
-0.022435749 -0.18581866 -0.29425502 0.45019382 0.1635955 0.72073543 -0.5969898 -0.4298324

layers.4.weight f4 [4, 64]
00000000: 54ec eebe 4e82 15bf 4d47 58bf eba8 52bf
00000010: 7f4e 863f 47fc e9bc 6651 413f 82ec cbbd
00000020: 923e 55bf 5cf1 803d 205f b23b b029 56bf
00000030: c494 30bf cde1 4abf 0a63 8dbf f7d7 47bf
00000040: 6206 54bf 10a8 103d c8e9 9ebc 815a 03bf
00000050: 1111 48bf f090 813d fa9e 013d fe17 56bf
00000060: 55cb 3bbf 635f 2c3f 85ca 25bf 7e61 933d
00000070: d60f 83bf efbf 17bf 37b5 8dbf b0ac 293c
00000080: fb02 74bf fe3b 623d ffa4 6dbf 7242 81bf
00000090: 9674 4ebf dfe4 37bf 728b 4c3f 2694 93bf
000000a0: 889d 1abf 4227 55bf 693b 16bf 5dad 80ba
000000b0: 4c24 5ebf fc5e 88bf 87df e73a 7b9a 833f
000000c0: ff86 683f e7e5 7d3f b7fb a5bf 4cdb c03f
000000d0: 3d93 33bf 7a5d 683a bef0 28bf 98f6 55bf
000000e0: fa01 e6bc da27 4dbf dce5 aabf 8a8d 01bf
000000f0: e75a 76bf cd8b 943f c2e2 68bf f1e3 35bf
00000100: 0f8a 11bf 8c1e 1bbf 81d3 51bf b340 83bf
00000110: 7e38 883f c8bd c0be 1221 6e3f 921e c23d
00000120: ba56 5abf 7c96 8c3d 73df 23bd 02f4 47bf
00000130: 04b9 6cbf 0a94 57bf 8581 75bf a244 5abf
00000140: e39c 39bf 71c5 a4bc 0d6a b0bd 6c6a dcbe
00000150: e45f 47bf c8c1 a43d b6a7 c63d 0b8d 6fbf
00000160: 6a27 05bf ca5e 3c3f 5766 85bf c3ea 04bd
00000170: 1d26 37bf cdb8 00bf bc2b 9cbf 0084 0c3c
00000180: fff3 72bf 6717 d93c ca7f 40bf 69a1 82bf
00000190: 6c0e 76bf f0d9 3cbf ea35 373e b3b7 9abf
000001a0: bcfc 04bf 3ead 40bf ecb9 fbbe b004 be3d
000001b0: 54ad 95bf 7547 8bbf 958b 12bc 0855 763f
000001c0: b20a 9b3f 2707 913f 171f 75bf b375 913f
000001d0: 1069 35bf c0a8 ed3c 1f64 38bf cf40 82bf
000001e0: 124a d73c 2143 75bf 96fa 79bf e617 2bbf
000001f0: a345 4ebf 2a72 8b3f d20c 8cbf 85ed 4abf
00000200: 2b21 48bf ebee 51bf a85d 83bf 79fe 21bf
00000210: ac0a 953f 7114 183f 9970 203f 3e4e f93d
00000220: ef38 59bf 07c9 78bd 181a a9bd c4d4 4cbf
00000230: 4d3d 7bbf c202 2dbf 4637 95bf bf4c 66bf
00000240: 83ca 89bf 3803 433d 7093 64bd 198d 36bf
00000250: 8c98 77bf 1067 95bd 1a63 1c3d d0eb 89bf
00000260: 704d 08bf cf0d 523f 9cec 81bf d8ca 9ebd
00000270: 420c 94bf 0b68 0dbf 1e9e 66bf fdec 823d
00000280: 19c8 4ebf 616b 003d 837b 86bf 98d8 8cbf
00000290: 4cfe 83bf 0f72 42bf be8a 36be fe85 14bf
000002a0: 4be7 0ebf 588b 70bf 931f c7be be3a 6fbd
000002b0: 109e 93bf e10f 92bf f2c2 4ebd 6928 8f3f
000002c0: d7f5 4e3f 2783 983f 78df 62bf eefa 903f
000002d0: e080 18bf 8887 d93d dccb 36bf e221 1dbf
000002e0: d284 05be df9f 06bf 628a 0fbf 1663 e5be
000002f0: 8a89 4ebf aae4 7d3f ff2c 90bf 8edd 80bf
00000300: 50ee 10bf f72a 0cbf 5dbf 72bf 18c3 0bbf
00000310: 0322 5f3f 56bc e03e 858a 7dbe 5b42 0fbc
00000320: ad8b 81bf c6cd ba3d 564b c13d 6365 6ebf
00000330: 937d 85bf 10ee 4dbf ed23 6fbf 6fc0 73bf
00000340: 94a8 7cbf 3137 763d f0d9 6b3d 7f63 f2be
00000350: d77d 5cbf cac7 1dbe c930 78bd a6d3 72bf
00000360: d595 1ebf aec9 f83e 9019 193e 3fdf cd3d
00000370: a4e3 7fbf f557 36bf 0972 7dbf 2a81 ec3d
00000380: b3b3 80bf 923d 12bd ff3d 88bf 05dc 96bf
00000390: 4c1c 51bf d736 3cbf 8866 9c3f 26e2 69bf
000003a0: 7c0b 37bf 4970 6cbf 63bf 39bf 4662 b73b
000003b0: 3e2f 4cbf 8fb1 8fbf 98d2 9b3d 8875 883f
000003c0: 2984 863f ea68 453f f978 8ebf ee11 bd3f
000003d0: c1d3 2ebf 2c92 0ebd dddc 63bf 39ea 56bf
000003e0: c8d6 7e3d 116a 22bf c3c0 7dbf 6f5b dfbe
000003f0: 5b4d c4bf c6e9 863f 2ef0 80bf 742b 86bf
-0.4666468 -0.58401954 -0.84483796 -0.82289 1.0492705 -0.028562678 0.7551483 -0.0995722
-0.832986 0.06296036 0.0054434687 -0.8365736 -0.68977 -0.79250795 -1.1045849 -0.7806391
-0.8282224 0.035316527 -0.019398585 -0.51309973 -0.7815104 0.06326473 0.031645752 -0.8363036
-0.73357135 0.6733305 -0.64762145 0.071963295 -1.0239208 -0.5927724 -1.1070927 0.010356113
-0.9531705 0.055232994 -0.9282989 -1.0098403 -0.80646646 -0.71833605 0.79900277 -1.1529586
-0.60396624 -0.8326303 -0.586844 -0.0009817291 -0.86774135 -1.0653987 0.0017690518 1.0281519
0.9083099 0.9917893 -1.2967442 1.5066924 -0.7014654 0.0008864027 -0.65992343 -0.835794
-0.028077114 -0.80138934 -1.3351398 -0.50606596 -0.96232456 1.1605164 -0.90971005 -0.71050936
-0.56851286 -0.60593486 -0.81963354 -1.025412 1.064224 -0.37644792 0.9301921 0.09478487
-0.85288584 0.0686464 -0.04000802 -0.781067 -0.9246981 -0.84210265 -0.95900756 -0.85260975
-0.72505015 -0.020113679 -0.086139776 -0.43049943 -0.7788069 0.08044773 0.09699957 -0.9357459
-0.52013266 0.73582137 -1.0421857 -0.03245045 -0.7154253 -0.50281984 -1.2200847 0.008576393
-0.9490356 0.026500417 -0.7519499 -1.0205508 -0.96115756 -0.73770046 0.1789166 -1.208731
-0.5194814 -0.75264347 -0.49165285 0.09278238 -1.169352 -1.0881182 -0.008944412 0.962235
1.2112639 1.1330308 -0.95750564 1.1364044 -0.7086344 0.02901113 -0.7202777 -1.0176028
0.026280437 -0.95805556 -0.9764799 -0.6683334 -0.8057501 1.0894215 -1.0941412 -0.79268676
-0.7817561 -0.82005185 -1.0262957 -0.6327892 1.1643882 0.5940619 0.6267181 0.12173127
-0.848525 -0.06073859 -0.0825693 -0.80012155 -0.9814041 -0.67582333 -1.1657493 -0.89960855
-1.0764927 0.04761049 -0.05580467 -0.7130905 -0.96717143 -0.07295048 0.038180448 -1.0775089
-0.5324316 0.8205232 -1.0150332 -0.07753533 -1.1566241 -0.5523688 -0.9008502 0.06392858
-0.80774075 0.031352405 -1.0506443 -1.1003599 -1.031198 -0.7595529 -0.17826363 -0.58016956
-0.55821675 -0.9396262 -0.38891277 -0.05840563 -1.1532612 -1.1411096 -0.050478883 1.1184207
0.8084387 1.1915025 -0.88622236 1.1326578 -0.5957165 0.10621554 -0.71404815 -0.61379826
-0.13038948 -0.52587694 -0.5607053 -0.4480216 -0.8067862 0.9917704 -1.1263732 -1.0067613
-0.56613636 -0.5475306 -0.9482325 -0.54594564 0.8716127 0.4389369 -0.24759872 -0.008743848
-1.0120751 0.091212794 0.09438197 -0.93123454 -1.0428947 -0.8044138 -0.93414193 -0.95215505
-0.9869473 0.06011123 0.05758089 -0.47341534 -0.86129516 -0.15408245 -0.0605934 -0.948542
-0.61947376 0.4859137 0.14951158 0.100523464 -0.9995673 -0.7122796 -0.9900213 0.115480736
-1.005484 -0.03570325 -1.064392 -1.1785895 -0.816838 -0.7352118 1.221879 -0.913607
-0.715019 -0.92358834 -0.7255766 0.005596432 -0.79759586 -1.1226062 0.07608527 1.0660868
1.0509082 0.7711321 -1.1130668 1.4771097 -0.6829186 -0.03480737 -0.89008886 -0.83951145
0.06221655 -0.63443094 -0.99122256 -0.43624446 -1.5336107 1.0540092 -1.0073297 -1.0482011

layers.4.bias f4 [4]
00000000: 21cf 773e 9db2 03be 4d31 e33d 5ccf 733e
0.24200107 -0.12861104 0.11093388 0.2380957
